trained_models/ppo/HalfCheetah-v2.pt (torch_old, 32651 bytes, 12 tensors)

_bias f4 [6, 1]
00000000: 9376 14c0 eaa4 3cc0 7d2c 19c0 0ed2 33c0
00000010: 9a37 24c0 8768 07c0
-2.3197372 -2.9475656 -2.3933403 -2.8096957 -2.5658937 -2.1157548

weight f4 [48, 17]
00000000: 6e8c 923d 2402 c3be 5c19 a5be 788a 8bbe
00000010: 00b8 453c 975a 09be 92dc 863e af2d c5be
00000020: 2e4b e2bd 9a20 c6be 3f8d 4e3e da60 9e3e
00000030: 4c1c 69be c62b 8f3b af7b 8fbe 246e 2d3d
00000040: 4c08 f9bc 7100 423e 7890 0c3f 0fcf 503e
00000050: ba8e a7be 3a1f b43e 1908 01be c279 6dbd
00000060: 4450 04be 5331 b9be 6070 72bd 1c1c c53e
00000070: 0411 b6be bff4 963e f9d6 d93e 0dcd 69bd
00000080: 859e 83bd 9adc 853e d5cb 24be a246 de3d
00000090: 7229 9bbe 5ab5 b63e 359d 3ebe 040c c3be
000000a0: 5195 6abe 34be d2bd a474 1fbe 24ff db3d
000000b0: 7939 0e3f ba8d 213e ba84 203f 5572 dfbd
000000c0: 9e41 42bd b1b7 e3be 18e1 7e3e 30ef f23e
000000d0: a1da ea3e 53bd 3abe ecea 523e f421 c2be
000000e0: 3c73 563e 0c01 2cbc 43cf 8c3e 5040 a43c
000000f0: 2de0 673d 00f6 ec3d 0cad dc3e 8256 a53c
00000100: 6585 ab3e 3874 ccbd db04 393e d4b9 95bc
00000110: a1c0 b4bd dc35 dbbd 6fe5 683d a3db babd
00000120: 2244 4abd 9030 d93c 2c78 37be 83d3 453e
00000130: 56c2 193e 7341 f83e b2a9 bebd 21e3 50bd
00000140: 90bd a03c 9e35 ac3e e031 0dbf ae95 17bf
00000150: 7e9a 6dbe b323 38bd 3656 4bbe b1f5 9fbe
00000160: 8bea f0bd bedc 28be 5984 303e 32a0 2f3e
00000170: bbea 833e bda9 2abf a1a9 e03e 94be 833d
00000180: 9ff2 913e f861 c83d 20ca cfbd 258c 923d
00000190: 3ed7 15bc fd89 533e 229d ea3e 166c 19bf
000001a0: f1f1 17be 1ff0 913d 23d4 60bd 86b2 e53e
000001b0: 57d0 8b3e 474e 823d cebe 74bd cd88 f83e
000001c0: d7fa a9be 5792 cbbe c75b 063d a492 a6be
000001d0: 4b05 3c3e d813 f8bd 65db 38bc 104f b73c
000001e0: 4c1f 95bd 93dc 66be bf36 b7be 4be3 acbc
000001f0: 3b72 943e b89e 65be 2d5b 653e e100 bb3e
00000200: c317 f83d d4fe a03e 4ac6 89be 2b00 623e
00000210: 3043 c6be 996d 083e f3c8 c63e 7710 6a3e
00000220: 8a2e edbd 86a7 0ebf 74d5 a8bd 51d4 5bbd
00000230: 7606 693e cb68 ce3d a839 c43d 582b 303e
00000240: 2da5 3abe 63d1 a83d 336b c63d accd ce3d
00000250: 01df ab3e 3b13 99be b883 543e 6e92 c9be
00000260: 7088 1f3e 213b 2dbe fb96 653e dbe6 8abe
00000270: dd03 743e 2b08 3a3e 20a2 a03e bad3 8ebd
00000280: f574 8cbd 11bd 11bf b5b4 01bf 553d 5cbe
00000290: 8344 4e3e fbe7 d23d 9db9 62be 21f6 53be
000002a0: 2c70 1dbd 5473 febc c03c bfbe a64e 02bf
000002b0: 477b 553e 1aa8 e8bd 4a5e 92be e0c6 8f3d
000002c0: f851 233e 4d0c b4be b240 403d 224d 1dbf
000002d0: a040 a9be 02bc 723d ff23 23be 0b04 ea3d
000002e0: 94f4 e53d 09d8 6abd 9632 7e3e dff0 b0be
000002f0: 427f 2f3f 2981 8ebe 2aa9 88bd 4443 adbe
00000300: b45c acbd 8f72 203e 566d 93bd e6ce 7f3e
00000310: c8cd babd 678f 693e 5bae f53d fd65 a1be
00000320: 18b5 88be ae41 b93e c0ca 90be a7f0 ec3d
00000330: f7ae 743e fa11 883e a423 823d 9ab0 f63e
00000340: 54c0 d6be 9338 c73c 68b2 92bd 13ca 033e
00000350: 991a 1b3e c98b d13d f37d 3f3e 2c2f b53d
00000360: 0f8f 6abd 0ed7 c03d c697 9f3e 01ae 5f3e
00000370: c6dc 43be ede1 f93b 13c5 a7be f94d ad3e
00000380: c65e cd3d 771b 9d3c ff11 f1bd be79 49be
00000390: 6ba6 b43d f003 d63e eed6 71be c128 c2be
000003a0: c871 9bbc b211 50bd bf16 2b3e a0cc 2b3d
000003b0: ea55 2d3e f893 7b3c 8b31 0fbf 4dd4 cb3e
000003c0: f3fb 02bd 9443 063d 782b 8a3e 5b6d 1e3c
000003d0: c976 0dbe 7dfc 15be 4cc4 1fbd f6d4 4c3e
000003e0: 913f 923e bd88 1e3e 5eba 01be e6fe 56be
000003f0: 9983 6fbe e26a d73d 3fa6 34be 25c1 a83e
0.07155691 -0.3808757 -0.3224591 -0.2725408 0.012067795 -0.13413464 0.26340157 -0.38511416
-0.11049496 -0.38696748 0.20171069 0.30933267 -0.227647 0.004369232 -0.2802405 0.042341366
-0.030399464 0.18945481 0.5490794 0.20391487 -0.3272608 0.35180074 -0.12600745 -0.057977445
-0.12921244 -0.36170444 -0.0591892 0.38498008 -0.35559857 0.294836 0.42546824 -0.057080317
-0.064267196 0.26144868 -0.16093381 0.10853316 -0.30305058 0.35685235 -0.18614657 -0.38095105
-0.22908522 -0.102901846 -0.15571839 0.107420236 0.55556446 0.1577672 0.62702525 -0.10910479
-0.04742586 -0.44476083 0.24890554 0.4744811 0.45869926 -0.18236284 0.20597428 -0.3791653
0.20942396 -0.0104982965 0.27501878 0.020050198 0.056610275 0.11570358 0.43100774 0.020182852
0.3350021 -0.099831045 0.18068258 -0.018277086 -0.088258035 -0.10703632 0.05685943 -0.09123924
-0.049381383 0.026512414 -0.17916936 0.19318967 0.1501554 0.48487434 -0.093097106 -0.050997857
0.01962164 0.33634657 -0.5515423 -0.5921277 -0.23203465 -0.04495592 -0.19857106 -0.31242135
-0.117634855 -0.16490456 0.17237987 0.17150953 0.25765023 -0.6666525 0.43879417 0.06432834
0.28505418 0.09784311 -0.10145974 0.07155637 -0.009145556 0.20658107 0.45823008 -0.5993055
-0.14838387 0.071258776 -0.05488981 0.44862765 0.27307388 0.063625865 -0.059752278 0.4854187
-0.33199188 -0.39760086 0.03280237 -0.32533753 0.18361394 -0.1211316 -0.0112827765 0.022376567
-0.0728136 -0.2254508 -0.35783955 -0.021104475 0.289934 -0.22423828 0.22398062 0.36524108
0.12113907 0.31444418 -0.26909095 0.22070377 -0.38723135 0.13323058 0.38825187 0.22857843
-0.11581142 -0.5572437 -0.08243838 -0.053669278 0.22756371 0.100785814 0.095813096 0.17204034
-0.18227072 0.08243062 0.096884154 0.100978225 0.33568576 -0.29897484 0.20753372 -0.3936953
0.1557939 -0.16917087 0.22420876 -0.27129254 0.23829599 0.18167178 0.31373692 -0.069739774
-0.06858245 -0.5692912 -0.5066636 -0.21507771 0.20143323 0.10298153 -0.22141118 -0.2069936
-0.038437054 -0.031060852 -0.37351036 -0.5090126 0.20847808 -0.11360188 -0.28587562 0.07020354
0.15949237 -0.35165635 0.0469367 -0.6144582 -0.33057117 0.05926133 -0.159317 0.114265524
0.1122829 -0.057334933 0.24823985 -0.3455877 0.68553555 -0.27832916 -0.066728905 -0.33840382
-0.08416119 0.156687 -0.071985886 0.24981269 -0.09121281 0.2280861 0.11996146 -0.31523123
-0.26700664 0.36182922 -0.28279686 0.11569338 0.23894869 0.26576215 0.06354454 0.4818161
-0.4194361 0.024318969 -0.071629345 0.12870054 0.15146865 0.1023174 0.1870039 0.08846888
-0.057265338 0.094160184 0.3117048 0.21843721 -0.19127187 0.0076258094 -0.32767543 0.3384855
0.10027842 0.019178135 -0.117710106 -0.19675347 0.08820804 0.4179988 -0.23617145 -0.37921718
-0.018975154 -0.050798126 0.16707896 0.041943192 0.16927305 0.015355103 -0.5593497 0.3981041
-0.03197856 0.03277929 0.2698629 0.009669627 -0.13814844 -0.14647098 -0.039005563 0.20003113
0.28564122 0.15481849 -0.1266875 -0.20995674 -0.23390044 0.10518433 -0.17641543 0.32959858

bias f4 [48]
00000000: 86e9 8e3e eccf 6bbd 3bb3 223e 933a a93d
00000010: 9ccc c13d 5c97 bdbc c962 4e3e 964b 293e
00000020: 522a 443e 8bae 80be d3a0 87bb 573f 45be
00000030: fe7a 9fbd 720d 913c ecd8 1bbe dc09 123e
00000040: 8030 c7bd c194 aabe 5d26 c53c 7c45 ab3d
00000050: a39a 65bb f0b8 8bbe 6572 7f3e 96ec 48be
00000060: 50c8 a53d f77b b9bd bfc0 413e 771b 0fbe
00000070: d5e4 4ebe e2c2 943d 7b23 b43e 2f7c 8cbd
00000080: 02d1 20bd 650b 073e a8da 9fbe 9e12 f0bd
00000090: fad7 2fbe 1639 c33e 080b 123d 921b 3bbe
000000a0: 74ac 963c 6f21 25be 33c9 6b3e c490 09be
000000b0: 6c98 43bd 4ad1 dfbc 9701 b6bd c06b 263e
0.2791254 -0.057571337 0.15888683 0.08263125 0.09462854 -0.023143463 0.20154871 0.1653274
0.19156769 -0.25133166 -0.004139045 -0.19262443 -0.07787131 0.017706607 -0.15219468 0.14261574
-0.097260475 -0.33316615 0.024066145 0.083628625 -0.0035034798 -0.27289534 0.24945982 -0.196215
0.08094847 -0.090568475 0.18921183 -0.13975321 -0.2020448 0.072637334 0.3518332 -0.06859624
-0.039261825 0.1318794 -0.3122151 -0.11722301 -0.17172232 0.3812949 0.03565505 -0.18272236
0.018392779 -0.16126035 0.2302597 -0.1343413 -0.047752783 -0.027321476 -0.08887022 0.16252041

weight f4 [48, 48]
00000000: d636 a0bd 44c7 503e 0fe9 a8be 40d9 70be
00000010: d2ed b1bd cf12 88be f185 be3d a5fd c1be
00000020: edab 6a3e db63 363e 1a13 993e e4b4 ea3d
00000030: f4c5 aabe b8dc 4f3e 0378 9d3d f3b1 8e3e
00000040: d5ed 043e 30a3 02bf 821e 52be cef6 0abe
00000050: 309d 0bbc 01a7 443a 37a5 3a3d 3b90 63be
00000060: 91d3 9a3d 8f70 fe3d c851 a83e 1f12 30be
00000070: 1f2b a93c 32ab b63e 0dbb aebd 037e 34be
00000080: 8bf3 b83e 455b 87be 1c3b e83d 0947 f4bd
00000090: 7789 213e fed0 413e 2cfe 043e 95df 58bd
000000a0: 5420 71bd 15ec 0cbf 7b9d 4bbe cba0 963e
000000b0: b1ab 10be 55c8 a43e 4f35 dcbd fe94 5fbe
000000c0: e890 823d 5e5d 33bd faf1 1abc 73a1 653d
000000d0: 0456 03be de8a 24be 510e 09bd ab35 f5bd
000000e0: f411 a43d 85d1 7abe 22bb 7e3e da7d 4a3d
000000f0: 7176 9ebe 9562 983d f04a 133e 99dd df3c
00000100: 1a08 80bd 138a 4dbe 0828 1bbf 3123 38be
00000110: 01d2 383e e4de 053f e51e cfbd 14a0 2d3d
00000120: 9694 88be bc65 a33d e820 933c c782 e9bc
00000130: 3ffa 66be 2814 55be 2d94 debe cdf8 ae3d
00000140: 4cb0 c4be 0a89 e8bd 343e e83e 60d3 a53d
00000150: 9ada d9be f649 e1be ccba 92bd 1aca e6be
00000160: 92b3 873e c160 493e 237c 773e 8b08 443e
00000170: c498 13be be3f 993d 5422 883e 59f9 77bd
00000180: 8b64 4cbe 8a25 e63e 9ebc 03be 61de a2be
00000190: 01bf 0bbe 85a3 743e 771f 21be 6f7e c4be
000001a0: 8d7e 173e 8353 9f3e daf6 9cbe 38de d4bd
000001b0: bfbc 61be d61a 28bd 9083 7c3d e42f 81be
000001c0: 3a40 06be 48c2 563e 0397 9cbd 46a7 e4bd
000001d0: e840 eb3d a878 dbbc bd72 49bd c960 0a3e
000001e0: 82ef bdbd 9601 e23d 7a45 20bf 9097 8b3d
000001f0: afab 303e 0f1e 96bd b31b 593d b804 fc3d
00000200: dff9 093f 3e07 a73e c3be a73e a358 863e
00000210: 1329 983d 58a2 bcbe 1fac 4dbe 7b67 91be
00000220: 83d7 c33d fb50 4b3d b611 febd 7035 93bc
00000230: 8614 883e 1902 85be 2d55 27bd 407b b53e
00000240: 1d92 c83e be66 4dbe c2d4 733e 2edf 40be
00000250: 0c40 023f 0864 e03e ef46 043f 191c 7b3c
00000260: 2fe0 a53d c151 55be b633 7e3e edec aabe
00000270: 7fc9 1abf 24b6 b1bd 134e d1be 0f17 3d3e
00000280: 8000 ad3e 6d82 e5be 2a05 a53d 9a60 6f3e
00000290: 5fb9 95be effb cb3e 19ba d9bd b472 22be
000002a0: d152 853e 4d7b 153e 1a1f 63be f076 49be
000002b0: 7f38 9fbe aa0a 48bd 99a9 633e 31d1 5c3e
000002c0: 359f e9bd 94b4 883c 3650 1ebf 9da2 acbd
000002d0: 342a 37be 9d42 823f 705c 163d 659b 9bbe
000002e0: 31ec da3e e36f 1ebd 5706 85bc 18be fd3e
000002f0: 0d41 993e aa1d 023f 8355 82be d3ba d9be
00000300: 4718 70be 99d3 5bbd ad3b 483d 3207 f83e
00000310: 9e6c 09bc 1cb0 93bd f61d 113d 4d7a 943e
00000320: c514 4bbe 685f 003f 5879 123e 8a11 323e
00000330: 8c9d 4fbd 9fd4 00be 2961 ce3d 630a 89bd
00000340: 9f74 04bf 0171 a53c 217a 8c3e 5f87 88be
00000350: 2a06 303e 711c 203e 5253 58bd fb70 a43e
00000360: e882 d9bc 4f1d 803d 11c5 43be bedf 3bbe
00000370: 9c2d ed3d 7fe4 d6bd aeb4 edbe 3822 b13d
00000380: eb5f b13d 2d34 123e 6bc0 1bbe 912a 99be
00000390: e7be c8bd 6b02 8cbe 11ac bd3d 4361 a3be
000003a0: aff5 31be 008a 7f3c ad58 c93d 851d 8c3e
000003b0: e957 8a3e 99b9 44be 6b48 1bbf 5231 eebe
000003c0: 3011 813d 77b9 9abd 2635 9bbd f8d7 703c
000003d0: 73a2 e53d bb24 00bf 117d 31bf 764c 493e
000003e0: 3c97 76be d882 273e d2e4 573e 1cc4 323d
000003f0: 951e 62be 7f6a 6d3e c0d0 74be 915a f2be
-0.07822959 0.20388514 -0.3299031 -0.23520374 -0.08687939 -0.2657685 0.09302891 -0.37888828
0.22917147 0.1781153 0.29897386 0.114602834 -0.3335415 0.20299041 0.07688906 0.2787014
0.1298135 -0.51030254 -0.2051945 -0.13570711 -0.008521363 0.0007501692 0.045567717 -0.22222988
0.07559884 0.124238126 0.32874894 -0.17194413 0.020650445 0.35677487 -0.08531771 -0.17626195
0.3612331 -0.2643682 0.11339399 -0.119276114 0.15775095 0.1892738 0.12987584 -0.0529476
-0.05886872 -0.5504773 -0.19884293 0.2941955 -0.14127995 0.3218409 -0.10752355 -0.2183418
0.06375295 -0.043790214 -0.009457106 0.056062173 -0.12825781 -0.16068599 -0.03346092 -0.11973127
0.08011237 -0.24493988 0.24876073 0.049436428 -0.3094974 0.07440678 0.14384055 0.027327346
-0.06251545 -0.20072202 -0.6060796 -0.17982174 0.1804886 0.5229323 -0.101133145 0.04238899
-0.26675862 0.07978389 0.017960027 -0.028504742 -0.22556399 -0.2080847 -0.43472424 0.08543549
-0.38415754 -0.11354263 0.45359957 0.08096957 -0.42549592 -0.4400174 -0.07164535 -0.45076066
0.2650419 0.19665815 0.24168448 0.19143884 -0.14413744 0.07482861 0.2658869 -0.06054053
-0.19960229 0.44950515 -0.1286492 -0.31810287 -0.13647081 0.23890503 -0.15734659 -0.3837771
0.14794369 0.31118402 -0.30657083 -0.10393947 -0.22044657 -0.041041218 0.061648905 -0.2523185
-0.13110438 0.2097255 -0.07645991 -0.111647174 0.11486989 -0.026790932 -0.04918169 0.13513483
-0.09274198 0.11035459 -0.6260601 0.06816018 0.17252992 -0.07329952 0.05300493 0.123055875
0.538969 0.32622713 0.32762727 0.262395 0.07429709 -0.36842608 -0.2008519 -0.28399262
0.0956259 0.049637776 -0.12405722 -0.017969817 0.26578158 -0.25978163 -0.040852714 0.35445595
0.39173976 -0.20058724 0.2381163 -0.18835136 0.5087898 0.43826318 0.51670736 0.015326523
0.080994 -0.20831968 0.24824414 -0.33383885 -0.6046371 -0.08677319 -0.40879878 0.18465827
0.33789444 -0.4482607 0.080576256 0.23376694 -0.2924299 0.39840648 -0.106311984 -0.15864068
0.26039746 0.14597817 -0.22179833 -0.19674277 -0.3109779 -0.048838295 0.22232665 0.21564175
-0.114073195 0.016687669 -0.6184114 -0.084294535 -0.17887193 1.0176579 0.03670925 -0.30391994
0.42758325 -0.038680922 -0.016238375 0.49559093 0.29932442 0.50826514 -0.25455865 -0.42525348
-0.23446761 -0.053668592 0.048885036 0.4844299 -0.008387713 -0.072113246 0.035428964 0.28999558
-0.19832142 0.5014558 0.14304101 0.17389503 -0.050687358 -0.12581109 0.100771256 -0.06691434
-0.5174045 0.020195486 0.27436927 -0.2666578 0.17189851 0.1563585 -0.052813835 0.32117447
-0.026551679 0.0625559 -0.19118144 -0.1834707 0.11580965 -0.10492801 -0.4642691 0.08649105
0.08660873 0.14277716 -0.1521012 -0.29915288 -0.09802037 -0.27345595 0.09261335 -0.31910142
-0.17378877 0.015596867 0.09831367 0.27366272 0.27020195 -0.19211425 -0.60657376 -0.46522003
0.063021064 -0.07554906 -0.07578497 0.014699928 0.11212625 -0.50056046 -0.6933146 0.19658074
-0.24081129 0.16358507 0.21083382 0.043644056 -0.22081979 0.23185156 -0.23907757 -0.47334722

bias f4 [48]
00000000: 4704 a03d c6b4 2abe f201 b7be 11c5 b13e
00000010: 882f a8bd 63ef 21be 0d19 9a3d 799c 013e
00000020: ad44 13bd d6be 89bc 3861 a23d 60ed a3be
00000030: e1c9 9b3d 5cf2 913b 01f7 2cbe f13f 93bd
00000040: c043 26be 468d 513d 28eb 0d3d 01b4 0dbe
00000050: 5205 f03d c210 23be 7119 e7bd e030 073e
00000060: 9c29 853d 7085 1abe e354 50bb 8352 24bc
00000070: 86b9 253c 4e0e c9bc a2df c93d 14b2 11bd
00000080: d73c 203e 0bf0 b9bd 6762 a83c aecb 1f3d
00000090: b7fe e7bd b841 7d3d e8a7 183e 315f 7e3b
000000a0: 4c97 99bd ab63 af3b b762 fc3d f792 da3d
000000b0: 0bdd 0f3e 4956 723e cd04 e0bc c236 d73d
0.07813316 -0.16670522 -0.35743672 0.34720662 -0.08212191 -0.15813975 0.07524309 0.12657346
-0.035954166 -0.01681463 0.07928699 -0.3201704 0.07606865 0.0044539403 -0.168911 -0.0718993
-0.16236782 0.05116012 0.03464809 -0.13838197 0.11719765 -0.15924361 -0.112841494 0.13202238
0.06502077 -0.15089965 -0.0031788878 -0.010029438 0.010115033 -0.024542954 0.09857108 -0.03557022
0.15648209 -0.09078988 0.020554734 0.039012603 -0.1132788 0.061830252 0.14907801 0.0038814063
-0.07499561 0.0053524575 0.12323516 0.106725626 0.14049165 0.23665728 -0.02734604 0.10508491

weight f4 [48, 17]
00000000: 0e50 1d3e 5e7b 6abe d3ba 773d 27c1 0a3e
00000010: bae4 1a3d 6cbe 9c3e 83ab cd3d 611b d5bd
00000020: d3ae debc a4c4 cf3d 71aa 5c3e bcd5 2a3b
00000030: e8c5 b3bd cbcc 583d dd1d 7f3a 4792 453b
00000040: bfb9 763d 0935 0bbe 2bbb ab3e 4a9f 353e
00000050: b2f5 b1bc ead9 c9bd 6917 97bd 2e6e 683b
00000060: 58ae 5cbe 4848 50be 1072 663e 74d3 ac3d
00000070: 485b 403e f5ee 95bd 08a2 d53d da32 063d
00000080: 4f27 b33d 47cc 0fbd 871f 80be f85c 50bd
00000090: 21ad 5a3e 776a 32bc cf6b 95bc 677c 1f3e
000000a0: aace 72bd 8f8b f5bc 56cb a33e 6d3f 05be
000000b0: 7613 f9bc 1f95 26be 2f3a ae3d f202 0bbd
000000c0: 563e 58be 10b2 b9bd 562a 20be 76a3 b43e
000000d0: a25b 21bf b329 593c a99e 2cbd 3063 89bd
000000e0: d3da ab3d e851 93bd 41c3 d8bd a433 fcbd
000000f0: 9f74 093c 8246 c53d 99cc 1abe 392b 47bd
00000100: 55c3 433c 2029 103e 0562 7a3b 6af1 803c
00000110: e951 ef3d 1eed 0ebf 6606 493e 9e93 36be
00000120: 1340 a83b 3147 99bd 3449 c5bc 9ef4 61bd
00000130: 795b 2bbd edfc 783e 2adc b4bd 1799 9b3e
00000140: fa15 d43d 9ebd 983d 5290 2c3e 5820 a4bd
00000150: 7910 28bd c8d9 c1bd 0cb5 cb3e d8e7 133d
00000160: 8daa 1bbe 17c1 a2bd 8a7d f9bc 2415 e03b
00000170: 4176 1f3e 5221 06be f023 ffbd ca1c 543e
00000180: ea4b cd3d b25a 203e a4de 7d3b 559e 663e
00000190: f7e4 543e 94e0 ef3c e452 aabc b2d8 af3e
000001a0: e83c c53c 509c 8f3e 1aff 173d 9200 483d
000001b0: e6be bcbd 3ced b23d d9cc a63d 54ae 2cbc
000001c0: 8259 0d3e 2f25 07bd 548f 0abe 44ae 063e
000001d0: 29b1 5d3c d2fe dcbc dd4b 32bd 6d25 38bd
000001e0: c74c abbd f247 113e 4af0 393d b101 03bd
000001f0: ba6c d03d 00e7 173d f6a7 c93d 49b0 61be
00000200: cd20 5a3b 6c68 55bd 1783 01bd a155 78bd
00000210: db88 993a acfa b23d 1e41 6e3d 21ca 043b
00000220: 64fe 71be e68b f53e 4d13 37be d9e5 c93c
00000230: 0167 1aba 7cd8 9dbd 63ed d83d 6296 ae3d
00000240: ebfc babd 1d5e 2cbe 6756 f0bd c7f4 2b3d
00000250: c2b1 cabd 56cb 75bd 7c8f 31bd 6a83 0b3d
00000260: e660 dd3d e4c7 df3d 9f77 103f 0eb6 7f3e
00000270: c999 513d c609 933a 82c6 8f3d 62d5 ab3d
00000280: ecc8 6abc 76d4 413e b40d 993d 3b75 453e
00000290: a864 d03c f973 b23d e827 1f3d f356 fc3d
000002a0: ae14 523e 1d62 c43d 1bfa b83d d977 abbe
000002b0: ff78 8b3c 4f24 a6bd 3b2e 4dbc 7baf dd3d
000002c0: 211a dabd c119 c0bc 794c 483e a751 183d
000002d0: e25d 883c 5202 313d 363b 0c39 de1a 7e3d
000002e0: f751 adbd 72cd dd3d 98af 6a3d a8b4 443e
000002f0: 585c aa3e 60db 7c3d 2cbc 04be cab2 fabd
00000300: 312d b33c daf2 18be abc9 133e 659e aa3e
00000310: 3456 d03d f76d 133d 769e 13be 5902 483d
00000320: 1aef debd 3103 ddbd 5497 833d e40a 1d3d
00000330: e564 55bd 0489 763f edfe ba3d 3a09 9d3c
00000340: 9fdf 9abd f7f0 2f3d 705f babc 4d20 64bd
00000350: 11c0 913d 2734 0d3c 5436 b43d 102b 8a3d
00000360: 34e2 bbbd c690 4ebb 7796 a2bd 04e1 5b3b
00000370: 58a0 13bd 9d43 13be 9d59 2ebe 2055 b4bd
00000380: 8298 083e 9cd0 b5bd 7976 2fbd bf7c 673e
00000390: 9250 5abc cb9d c73e 9d22 6bbc c386 c0bd
000003a0: f90d 73b7 b4e1 46bd c070 56bd 8d47 03be
000003b0: 9858 38be 3141 1a3d d42c 80be 8d07 c63e
000003c0: cbaa 3a3d 7b96 3abd 2c42 eebc 8940 4dbe
000003d0: d9e1 18be 6163 303d 76f3 87be 5fa3 0fbe
000003e0: fc7e 3d3d bb16 2d3e ddb5 fc3d 34b7 f6bb
000003f0: 84c4 69bd 214d ed3d 3a9e 9b3d 11a2 e93d
0.1536257 -0.22898623 0.060480904 0.13550244 0.037815787 0.3061403 0.10042479 -0.10405613
-0.027182972 0.10144928 0.21549393 0.0026067337 -0.08777982 0.05292968 0.0009731928 0.0030147003
0.060235735 -0.1359445 0.33541235 0.17736545 -0.021723602 -0.09856017 -0.07377512 0.0035466063
-0.21550882 -0.20340073 0.22504449 0.08438769 0.18784821 -0.07320968 0.10431296 0.03276334
0.08747732 -0.035106923 -0.25024053 -0.050869912 0.21355106 -0.010889641 -0.018239884 0.155748
-0.05927912 -0.029973773 0.3199107 -0.13012476 -0.030404788 -0.16267823 0.085071914 -0.033938356
-0.2111753 -0.09067166 -0.1564115 0.3528096 -0.63030446 0.013254571 -0.042143498 -0.06708372
0.08391347 -0.07193357 -0.10584117 -0.12314537 0.008389621 0.09632589 -0.1511711 -0.048625205
0.011948426 0.14078188 0.0038205397 0.015740115 0.11685545 -0.5583056 0.19631347 -0.17829749
0.0051345914 -0.07484282 -0.024082758 -0.055164926 -0.041835282 0.24315234 -0.088310555 0.30390236
0.10355754 0.074580416 0.16851929 -0.080139816 -0.041031335 -0.094653666 0.39786565 0.036109775
-0.15201779 -0.07946985 -0.03045537 0.0068384577 0.15572454 -0.13098648 -0.124580264 0.20714107
0.10024245 0.15659598 0.003873744 0.22521336 0.20790468 0.029281892 -0.020791478 0.34345013
0.024076894 0.28048944 0.03710852 0.04882867 -0.092160985 0.08736655 0.0814454 -0.01053961
0.13803676 -0.032994445 -0.13531238 0.13152415 0.013531008 -0.026976977 -0.04352938 -0.044957567
-0.083642535 0.14187601 0.045395173 -0.031984035 0.10176988 0.037085533 0.09846489 -0.22039904
0.003328371 -0.052101538 -0.031619158 -0.060628537 0.001171376 0.08739218 0.05816757 0.002026208
-0.23632199 0.47958297 -0.17878456 0.024645733 -0.00058899826 -0.07707307 0.10592153 0.08524777
-0.091302715 -0.16832776 -0.1173523 0.041981485 -0.09897186 -0.06000837 -0.043349728 0.034060873
0.108094975 0.10926798 0.5643253 0.24971792 0.05117205 0.0011218123 0.07020284 0.08390309
-0.01433013 0.18928704 0.07473317 0.19283001 0.025438622 0.08713526 0.038856417 0.12321272
0.20515701 0.09589026 0.09032079 -0.33489874 0.017025469 -0.08112394 -0.012523229 0.10824486
-0.10649515 -0.02344978 0.19560422 0.037187245 0.01664633 0.043215103 0.00013373498 0.06203734
-0.08462899 0.10830201 0.057296365 0.1920954 0.33273578 0.06173265 -0.12962407 -0.122411326
0.021872135 -0.1493639 0.14432399 0.3332397 0.10172692 0.035993543 -0.14415917 0.048830364
-0.10885449 -0.10791624 0.06425348 0.038340464 -0.052098174 0.9630282 0.091306545 0.019169439
-0.075621836 0.04295441 -0.022750586 -0.055694867 0.07116712 0.008618391 0.08799425 0.06746495
-0.09174004 -0.0031519397 -0.07938855 0.0033550868 -0.036041588 -0.14381261 -0.17026372 -0.08805299
0.13339427 -0.0887768 -0.042837594 0.2260618 -0.0133248735 0.38987574 -0.014351514 -0.09400704
-1.4487182e-05 -0.04855509 -0.05235362 -0.12820263 -0.18002546 0.037659828 -0.250342 0.38677636
0.045573037 -0.045553666 -0.029084288 -0.2004415 -0.14929904 0.043063525 -0.26552933 -0.14027165
0.04626368 0.16903202 0.12339375 -0.0075291637 -0.057072178 0.11586977 0.07598539 0.11407865

bias f4 [48]
00000000: 12c3 cebe aed7 663e f882 943c 1511 613e
00000010: d7dc a73e 0e34 c1be e982 0a3f 95da 10bf
00000020: a414 463e 4031 62be af24 103e 61e7 0d3e
00000030: 0e44 78be 034f 85bd 3223 e6be 634d 64be
00000040: de4d 3bbf e909 3d3f a2d6 89be f461 673e
00000050: 66f5 26bf a7e2 16bc 23cb 803e d5f0 a33d
00000060: b217 173e d041 983d 0efd 2fbe 53e8 1e3e
00000070: f6b5 19bf 8d92 a0bd 34f6 aa3e 42c2 e93d
00000080: 3f6d 5abe 4736 c83e f415 05bf 1c33 1f3e
00000090: 993c 6e3e 42ec 733d 49cf 033e 48c1 8b3b
000000a0: 9202 173f b2a1 c93e 83c4 153f b71b b5bd
000000b0: 71a4 f3be cdf0 03bd dbc8 dd3d 6dfa 3fbf
-0.40383202 0.22543213 0.018128857 0.21979173 0.32785675 -0.37735027 0.54106003 -0.5658353
0.19343811 -0.220891 0.14076494 0.13857795 -0.24244711 -0.06509211 -0.44948727 -0.22295146
-0.7316569 0.73843247 -0.26921564 0.2259596 -0.652182 -0.009209312 0.2515498 0.080049194
0.14755133 0.07434428 -0.17186376 0.15518312 -0.60043275 -0.07840452 0.33390963 0.11414005
-0.21330737 0.3910391 -0.5198662 0.1554684 0.23265304 0.059551485 0.12872042 0.0042649843
0.58988297 0.39381176 0.5850298 -0.08843177 -0.47586396 -0.032212067 0.10829326 -0.74991494

weight f4 [48, 48]
00000000: b5a1 2f3e 9c91 33be f6de 40be e120 d4be
00000010: e19d 34be 1913 f33e 4d03 803d a247 d83d
00000020: fa62 a33e 8e70 143f 2cbf bebe 3f70 48be
00000030: a531 e83e d72d f83d c306 35bc bfc1 9c3a
00000040: 933d f13e a7fc f1be 9b88 a53e 3ac8 45bd
00000050: 30e2 2b3d 2720 303f fb6c b2be 8ca5 d4bd
00000060: aa17 10bf be49 e53c 5113 713e eddd 93bd
00000070: b997 adbe 9906 f93e 4295 ae3d 1718 99be
00000080: 2ea3 b03d 495b bb3e f1bf a63e a681 633e
00000090: eba4 25bf fc64 2f3e 03e9 7bbd b3f1 963a
000000a0: a8cb 52bf 7e14 cfbc b697 44be dd30 3a3d
000000b0: 084f 573f 3eeb 683e b510 0fbd 197f 8f3e
000000c0: 2c8a 743e b471 3abe d075 a03d 6507 0dbe
000000d0: 1672 52be f1d3 b13d 57b9 9d3d b365 023e
000000e0: 2bf4 2e3d 52b2 44be 63f1 d6bd 4dbe d5bd
000000f0: 052d c93e 7621 cc3c a064 6ebe 2f39 9abe
00000100: b090 b2be 9892 6a3e 8794 8dbe 2f43 5f3c
00000110: e446 873d 7d68 a23e fe63 173d 0fc2 2e3e
00000120: 5ac4 50be 27a5 113e ac6e 973e c0c0 d8bd
00000130: c717 cdbe ffc1 85be bf9a f83e 7056 1abd
00000140: b93c 80bd 74a6 5c3d ef28 b33d ebdc 53be
00000150: ade2 01be 7954 13bd ae8a b8be 4a8f 853d
00000160: c8fc 9abd 2b72 d0bd 1665 27bd 840e 983e
00000170: 0f03 3f3e 87cf 5f3d e0ee 823d 5a7f 8b3d
00000180: 806c 113f 96d3 2c3c 129f a5be 22bf fa3c
00000190: b7ab 7bbd 07ff c9bd e854 b9bc bb3c 053d
000001a0: cf19 6d3d 07ac 153d e4ca 753a 7469 aebe
000001b0: c07f b8be eef7 753e a6f8 95bb cb62 a7bd
000001c0: 9576 d0bc 85d4 423d b953 0bbe bb53 7a3b
000001d0: 2f33 533d 640c c5be 804f 60be a90c f33d
000001e0: 1809 1bbe 9079 d7bc a953 d8bc c8d1 c43c
000001f0: ae62 583e bf30 87bd be91 213c f50d c0bd
00000200: 60ea 713d b59f 81bd dd96 31be aa81 0abe
00000210: e99d babd 3bd0 443e a720 87be 7520 a23d
00000220: 40e8 713d 6c47 ee3d 0eeb 8a3d 3a07 13bf
00000230: d245 d93d 1d93 44be 3b43 143d 10c4 fbbd
00000240: 8bee 993e 8c69 933d dbb0 89be d6f8 14bf
00000250: 31ed 0c3d 0629 3a3e 987c dfbd 7dfc 6abe
00000260: 5132 213e f863 bf3e 5602 a7be 813c 123e
00000270: c4e8 74bd 0ced 48be b291 d83d 0324 54be
00000280: 4570 1a3e 9d85 acbc 8f8d 9d3d 7bfd 8c3e
00000290: 83d0 1dbc cbfc 4a3e b537 70bd e9f8 bcbd
000002a0: 5046 f6bd 8f98 dbbd b39c fa3d 8bda 543d
000002b0: 2cc9 953d 3e5c 223e 8f52 583d 955a 3cbe
000002c0: c2dd 4bbe 2c6d 1e3e 3d5c 763e e2a7 fcbd
000002d0: 998c ad3e a8af 56bd bb22 1c3d 1ae7 2d3e
000002e0: e6d0 123e 1b81 96bd 5ab9 04bf 3a68 153d
000002f0: c5c8 6a3e 3f04 043f 0766 823e c96c 1b3e
00000300: 8013 91bd f4a1 53be 3122 823c 1612 3b3e
00000310: 1007 f0be 665f f83d 9f51 973d bb19 86be
00000320: bbc7 2c3e 6f31 993b e208 23be 9b8c 04bd
00000330: c2f3 c6bc 3b5f 823d 239b 453d c870 cfbb
00000340: 6ccd 74be 6e8e 253d d2ba 8c3e 91dd 463e
00000350: 4a4e 4abc 6df2 a9be 093c 9f3e 8dff 923c
00000360: eb55 a13e a5ec b9bc a15a ac3d 31be 243e
00000370: 755c 78bd 6a07 e83d dd25 b6bd 8bed a53e
00000380: 9627 513e 73d2 8ebd dec5 6c3e f70f 56bd
00000390: c391 95be 1f82 143e 9d4a 2dbe 4ece 943e
000003a0: 1567 1dbe 5baa 173e d65e 60be 91d4 c23c
000003b0: 7755 78be 8806 423e b870 6fbc be35 89be
000003c0: aa53 87bd 35d9 ca3e e656 adbd 93c1 63be
000003d0: 5828 0dbe a696 f5bc 59f7 86be 0607 753e
000003e0: b4ff d5be 641f 0f3e 8b8f c4bc 034d 4c3d
000003f0: 5703 0a3e e5c2 5dbd f416 cd3e d686 8ebe
0.1715153 -0.17536014 -0.18835053 -0.41431335 -0.17638351 0.47475508 0.062506296 0.10560538
0.3191145 0.57984245 -0.37255228 -0.19574068 0.45350376 0.12118118 -0.011048975 0.0011959596
0.4711729 -0.4726307 0.32330784 -0.048286654 0.041963756 0.6879906 -0.3484877 -0.10383138
-0.5628611 0.027989265 0.23542525 -0.07220063 -0.33904818 0.48637846 0.085245624 -0.29901192
0.08624874 0.36593083 0.32568315 0.22217426 -0.6470477 0.17128366 -0.061501514 0.0011516124
-0.82342005 -0.025278326 -0.19198498 0.045456756 0.8410497 0.22745988 -0.034928042 0.28026655
0.23880833 -0.18207437 0.07834971 -0.13772352 -0.20551333 0.08683003 0.077013664 0.12734108
0.042713325 -0.19208649 -0.104952596 -0.104366876 0.3929216 0.0249183 -0.23280573 -0.30121753
-0.34876013 0.22907484 -0.2765238 0.013626858 0.06605318 0.31720343 0.036960594 0.17066215
-0.20387402 0.14223157 0.29576623 -0.10583639 -0.40057203 -0.2612457 0.48555562 -0.03768009
-0.06261582 0.05386968 0.08748042 -0.20689742 -0.12684126 -0.03596923 -0.36043304 0.06521471
-0.075677454 -0.10178026 -0.040867887 0.29698575 0.1865351 0.054641273 0.06393218 0.068114
0.5680618 0.010548493 -0.32347924 0.030608717 -0.061443057 -0.09863096 -0.022623494 0.03252862
0.05788594 0.03654101 0.00093762414 -0.3406483 -0.36034966 0.24020359 -0.0045767603 -0.0817314
-0.02544717 0.047565956 -0.13606156 0.003819688 0.051562484 -0.38486016 -0.21905327 0.11867649
-0.15140188 -0.026303083 -0.02640708 0.024025813 0.21131393 -0.066010945 0.009861408 -0.09377662
0.059061408 -0.0632929 -0.17342706 -0.13526025 -0.0911215 0.19220059 -0.263921 0.07916347
0.05905938 0.116347164 0.067831144 -0.574329 0.1060902 -0.19196744 0.03619693 -0.12293255
0.30064806 0.07197866 -0.26892743 -0.58192194 0.03440589 0.18179712 -0.10912436 -0.22947879
0.1574185 0.37380958 -0.3261897 0.14280893 -0.059792295 -0.19621676 0.10574664 -0.20716862
0.1508189 -0.021059806 0.07693016 0.2753714 -0.009632233 0.19822995 -0.058646876 -0.09227163
-0.1202513 -0.107224576 0.12236919 0.05196623 0.07313761 0.158555 0.05281311 -0.1839393
-0.19908813 0.15471333 0.24058624 -0.123367086 0.3389633 -0.052413613 0.03811906 0.1698269
0.14337501 -0.07348844 -0.51845324 0.03647635 0.2292815 0.5156898 0.25468466 0.15178217
-0.070837975 -0.20667249 0.015885444 0.18268618 -0.46880388 0.12127571 0.07388615 -0.26191506
0.16873066 0.0046750824 -0.15921357 -0.032360654 -0.024286155 0.0636582 0.048243653 -0.0063305832
-0.23906487 0.040419035 0.27486283 0.19420458 -0.012347767 -0.3319277 0.3110049 0.017944122
0.31510863 -0.022695849 0.084157236 0.16088177 -0.06063505 0.11329539 -0.088939406 0.32407793
0.20425257 -0.06973734 0.23122355 -0.05226132 -0.2921277 0.14502762 -0.16922994 0.29063648
-0.15371354 0.14811079 -0.21911177 0.023783 -0.24251352 0.18947804 -0.014614277 -0.26798815
-0.066077545 0.3961884 -0.0846384 -0.22241811 -0.13784921 -0.029979061 -0.26360586 0.2392846
-0.41796649 0.13976818 -0.023994228 0.04987813 0.13477837 -0.054140944 0.40056574 -0.27837247

bias f4 [48]
00000000: 0807 5dbe 35ab b9bd 6eb2 8f3d 5783 d03c
00000010: d682 3bbe 6d5f ebbc 18b0 d63e 837a 8cbe
00000020: 7fa1 85bd 1ef0 94bb 1658 343d aa3d 6d3c
00000030: 64f5 e53d a9f1 293e a264 54bd c35c 1abe
00000040: b87c ce3e 34d2 3c3e 4133 193e b729 3e3d
00000050: 9702 c0bd 47cc 4fbd 0800 03be bf73 703e
00000060: 7ec9 68bd 30f5 993c edcc 86bd e8ee e93d
00000070: 42bb 2cbd d942 9cbd 51c5 5bbd 9f6e d4bd
00000080: 74af b4be 07b1 b4bd 2b00 873d 7037 523c
00000090: a44d 473e d704 8ebd b490 ef3d 3c73 9abd
000000a0: 8ef5 003e dd7f 003d ac3c 50be 60fe 893d
000000b0: e8c5 47bd 7f95 2c3d baaf babc cd47 423e
-0.21584713 -0.09065858 0.07016455 0.025453253 -0.18311629 -0.028732026 0.41931224 -0.2743722
-0.065249436 -0.0045452258 0.044029318 0.014480034 0.11228445 0.16596092 -0.051853783 -0.15074448
0.40329528 0.18439561 0.14960958 0.0464265 -0.09375494 -0.050731923 -0.1279298 0.23481654
-0.056832783 0.018793672 -0.06582055 0.11422521 -0.04217077 -0.07629938 -0.053654972 -0.10372662
-0.3529011 -0.08822828 0.06591829 0.0128306 0.19463211 -0.06934517 0.11697522 -0.075415105
0.12593672 0.03137194 -0.20335644 0.06737971 -0.048772722 0.042134758 -0.022788871 0.18972702

weight f4 [1, 48]
00000000: 2ba7 eebe ab7e 17bb c027 cfbc 49fe 81be
00000010: 7bd4 cb3c 8f62 30be 88df 9a3e 33e2 64be
00000020: 0315 113c 511d 523e cbdf a83e 7388 f9bd
00000030: 395c 67bd 2fda 933e 7857 923c 7147 f03d
00000040: cac3 9b3e 9c7f 0abc f16c bbbe 84d4 3dbe
00000050: d197 0b3e 62ff a7bd 7367 f63d 085a 663e
00000060: 3dbc b9ba 4f53 a6bd 4e3b 5d3e 5081 fe3d
00000070: 1087 2c3d eec8 d63d 71ac 063e 91fd 0c3e
00000080: c627 a5be 0905 c0bc 4616 9abc dfc3 29be
00000090: cc60 01be 713b 97bc 1db4 0ebe 4e63 8a3e
000000a0: a794 ff3d 4709 c3be 1a6e 34ba fe7c 133e
000000b0: 8dff dabd 9811 b3bd 5902 a1be 19ab 19be
-0.46611914 -0.0023116271 -0.025287509 -0.25389317 0.024881592 -0.17225097 0.30248666 -0.22351913
0.008855107 0.20518996 0.3298324 -0.12184229 -0.056484435 0.28877398 0.017863974 0.11732376
0.30422813 -0.008453276 -0.36606553 -0.185381 0.13632132 -0.08203007 0.1203145 0.22495282
-0.0014170479 -0.081213586 0.21604654 0.12427008 0.042120993 0.10487543 0.13151719 0.13768603
-0.32256907 -0.023439901 -0.018809449 -0.16578625 -0.12634581 -0.018460961 -0.13935895 0.27028888
0.12479525 -0.38093016 -0.00068828615 0.1440315 -0.10693274 -0.0874359 -0.31447104 -0.15006675

weight f4 [6, 48]
00000000: 94ec b839 f6c2 803e 4bc2 f23d a7ff fe3d
00000010: 6b79 9a3d e6ac da3d 734e 8abe 68e7 193d
00000020: 9955 313e a4cd 4abd e0c0 42be 03fb 09bb
00000030: 32d9 f1bd 958d 383e 2e1b a33e aaa7 33be
00000040: bf84 d43d 068f 813d ac34 a13e 7cff 713e
00000050: e35a cd3c 5807 493c ac7e ddbe 64a6 d6bd
00000060: a75a 7dbe b607 a03e 339d fe3d 387c 653e
00000070: 104d 1b3e ca08 053e 3441 58bd be24 013e
00000080: 7ce2 f13d 781a bcbd 6810 89bc 58e5 59bd
00000090: e641 b03d f11a 023e b110 07bd 3b35 c73d
000000a0: 75af 2a3e 4cdc 3dbe aed7 00be 3930 1e3e
000000b0: 9e4d b83b 1f2f 2dbe d0f3 023e 09d6 fbbd
000000c0: cd8a b93c 6a65 423e 888d d3bc 3e99 42be
000000d0: 0533 c5bd 44b1 b8bd 5a48 113e 1f3e 523e
000000e0: dff9 abbe 1326 9b3d c0b4 02bd c5cf 0e3e
000000f0: 5f22 203e 3bd4 543e 3f03 b23d 6987 ad3e
00000100: 2713 e5bc f2a1 5abe 0016 89bd 1e1e a13d
00000110: cae4 053e 4506 a33e 665c 083e 75c7 d7bd
00000120: c209 213e 197a 25be 6464 8c3d 7bf4 fd3d
00000130: 174f d83d acdc 323e b12c 5b3e 493a 4ebe
00000140: 217c 4ebe ad0d 8dbe df07 1d3e 2b19 2bbd
00000150: c76c 723d 86f8 f03c 5c3e 363e 765a 13be
00000160: 4ef5 843d 3fa4 633c c3ed 4fbe 73b3 e13c
00000170: 0a40 093e 30b0 62be 3322 3e3e edaf 8e3d
00000180: 54ed e33d 1ab8 0d3e 4ac1 6d3e 4f32 82bc
00000190: 2eed 7f3c 2c7b 03bc e808 dc3c 0011 d1bd
000001a0: 83f4 58be ad18 15be ec04 e9bc 241d 953e
000001b0: 2644 2d3e 320a 60be 0b2b 4cbc c6e1 663c
000001c0: f0d4 9b3d 7afe dcbc 76ab 1b3e 370b b1be
000001d0: a7f3 bdbe d552 d43b 315a 89bd a147 893e
000001e0: 9f48 e6bd 8055 5c3e ac28 a0bd af03 d9bc
000001f0: 92a3 9cbd 418d 57bd a0ae eb3d 7dea 193e
00000200: 075e 8cbd f296 12be 4b2f fa3d 10b2 1b3e
00000210: e566 bfbd 7712 86bd 548c e7bd 3ef8 0bbe
00000220: e444 19bd abcb 47be dc4b 3c3e 639f 193e
00000230: 26f6 743d 0cc5 82bd 8648 e3bc 5de3 35be
00000240: 4b7a 1cbe 5c9e 09be 19f7 82be 89cf 153f
00000250: fc61 38be e5a2 473e 5d40 c8bd 034f c83c
00000260: 8588 bcbd 74d9 29bc bb16 953e 4e77 59be
00000270: 3eb1 98bd 3eae 623d ecd9 bcbd 5f16 c5bd
00000280: 8341 bc3e d2da cf3c 381b 3abd 198f 35be
00000290: 893f 0fbe c834 4fbd 48b3 19be c767 d43d
000002a0: 9a66 0dbe 55e5 fabd 8270 4d3c ae1b 163e
000002b0: ed61 aebd 60c6 98be 5460 793e 6c3a 7c3c
000002c0: 7920 86bd 59cd b1bc a0db e4bd d79d 813e
000002d0: cb9b 7c3e f91f 193e 1a9c b3bd 1c8b 41bd
000002e0: d35f 54bc 4671 10be 37ef a5bd 612e ca3e
000002f0: b0ee f2be 380b 023d f8c7 c73e b5cc d93e
00000300: fa29 f9bd 2981 19bd 59a8 e7bd 3441 8d3c
00000310: 27fc 73be da58 c1be 4ea6 acbd e14c 52be
00000320: bdab 443d c98d 64be 07bd 65be eca3 813e
00000330: 8b34 90be f62e 9bbd 078b 36be b875 d7b9
00000340: 1bbe 75be 1f22 9e3e 2f04 b7bc 1382 4e3e
00000350: 2bcb a53e c3ce 04be c668 2d3e 2939 ae3e
00000360: bc96 b33c 98cb 23bd a2f6 79be 3999 afbd
00000370: 3c88 b93d 79e2 dc3d 64b1 e6bd 2b3b 8d3b
00000380: f24d 503e caae debd 21d1 773e 4ebe 143e
00000390: dd0c 89bd 80c8 aa3d 6aa8 a23d b31b 0c3d
000003a0: 2823 07bd a995 c93d 67ef 933e b065 16be
000003b0: d7cb 8bbe b82c a23e bfde 6e3d 4cea 023e
000003c0: 3ef4 c1bd c7ee 7a3b 1f71 27be 2ad0 aabc
000003d0: c9b4 613e 60c1 823e c10c 8e3e d514 8c3c
000003e0: ae5c 26be 5052 623d e73f c5bd cb44 2ebe
000003f0: d4c5 81bd 21eb dabc 4c03 55be 4600 7dbe
0.0003527148 0.25148743 0.11853465 0.124511056 0.0754269 0.10677509 -0.27012977 0.0375742
0.17317809 -0.04951252 -0.19018888 -0.0021054156 -0.11809005 0.1802276 0.31856674 -0.17544428
0.10376882 0.06326108 0.31485498 0.23632616 0.025067752 0.012269817 -0.43260705 -0.10480955
-0.24741612 0.31255883 0.12432327 0.22410667 0.15166116 0.12991634 -0.052796558 0.12611672
0.118107766 -0.09184736 -0.016731456 -0.053197235 0.08606319 0.1270559 -0.032974903 0.0972695
0.16668494 -0.18541068 -0.12582275 0.15448083 0.005624487 -0.16912507 0.1278832 -0.12296683
0.022649193 0.18983999 -0.025824323 -0.1900377 -0.09628872 -0.09018186 0.14187756 0.2053151
-0.33589074 0.075756215 -0.031910658 0.13946445 0.15638112 0.20784084 0.086920254 0.33892372
-0.027963234 -0.2135084 -0.06693649 0.078670725 0.13075557 0.3184072 0.13316497 -0.1053609
0.15726379 -0.16159858 0.068550855 0.124001466 0.1056196 0.17466992 0.21403767 -0.20139422
-0.20164539 -0.27549496 0.15335034 -0.04177205 0.05918577 0.02941538 0.17797226 -0.14389977
0.06492101 0.01389414 -0.20305543 0.027551388 0.13403335 -0.22137523 0.18567733 0.06967149
0.11129251 0.1383976 0.23218265 -0.01589313 0.015620513 -0.008024972 0.026859716 -0.102083206
-0.21187024 -0.14560194 -0.02844473 0.29123795 0.16920528 -0.21878889 -0.012461434 0.0140919145
0.07608974 -0.026976813 0.15202126 -0.3457887 -0.37099954 0.006479601 -0.06706656 0.2681246
-0.1124432 0.2151699 -0.078202575 -0.026491014 -0.07648386 -0.052624945 0.115079165 0.15030856
-0.06853872 -0.14315394 0.12216052 0.15204644 -0.093457974 -0.06546491 -0.11306062 -0.13668916
-0.037419215 -0.19511287 0.18388313 0.15002207 0.059805058 -0.0638524 -0.027744543 -0.17762513
-0.15281026 -0.13439316 -0.25579146 0.585198 -0.18006128 0.19495733 -0.09777901 0.024451738
-0.092057265 -0.010366786 0.29118904 -0.21236917 -0.07455681 0.05534195 -0.09221253 -0.096234076
0.3676873 0.025372896 -0.045436114 -0.17730369 -0.1398908 -0.050587445 -0.15009797 0.103713565
-0.1380867 -0.12250773 0.012539031 0.14658996 -0.085147716 -0.29838848 0.24353153 0.015394788
-0.065491624 -0.021704363 -0.11174703 0.25315735 0.24668805 0.14953603 -0.087700084 -0.047251806
-0.012962299 -0.1410571 -0.08102267 0.3948851 -0.4744773 0.03174898 0.39019752 0.42538992
-0.121662095 -0.037476692 -0.11311407 0.017243005 -0.23826657 -0.377631 -0.084301576 -0.2053714
0.048015345 -0.22319712 -0.2243539 0.25320375 -0.28165087 -0.075773165 -0.17826472 -0.00041095703
-0.239983 0.30885407 -0.022340862 0.20166807 0.32381567 -0.12969498 0.16934499 0.34027985
0.021922462 -0.039989084 -0.24410489 -0.08574147 0.09059188 0.10785384 -0.11264303 0.004310032
0.20342234 -0.10873182 0.2420087 0.1452572 -0.066919066 0.083390236 0.07942279 0.034206104
-0.032992512 0.098429985 0.28893587 -0.14687228 -0.27303955 0.31674743 0.058317896 0.1278469
-0.094704136 0.0038289295 -0.16351746 -0.020851213 0.2204162 0.25538158 0.27744105 0.017099777
-0.16246292 0.05525428 -0.09631329 -0.1701843 -0.06336561 -0.026723446 -0.20802039 -0.24707136

bias f4 [6]
00000000: f4ad 233b 3a64 473d 24f3 cabc 3f08 bc3c
00000010: 215a 983d db4c bd3b
0.002497551 0.048679568 -0.024774142 0.02295315 0.07439066 0.005776984
